…
I1123 15:32:08.744284  7240 net.cpp:313] The NetState phase (0) differed from the phase (1) specified by a rule in layer data
I1123 15:32:08.744328  7240 net.cpp:313] The NetState phase (0) differed from the phase (1) specified by a rule in layer accuracy
I1123 15:32:08.744583  7240 net.cpp:49] Initializing net from parameters: 
name: "AlexNet"
state {
  phase: TRAIN
}
layer {
  name: "data"
  type: "Data"
  top: "data"
  top: "label"
  include {
    phase: TRAIN
  }
  transform_param {
    mirror: true
    crop_size: 227
    mean_file: "/mnt/data/mean_all.binaryproto"
  }
  data_param {
    source: "/mnt/data/train_all_lmdb"
    batch_size: 128
    backend: LMDB
  }
}
layer {
  name: "conv1"
  type: "Convolution"
  bottom: "data"
  top: "conv1"
  param {
    lr_mult: 1
    decay_mult: 1
  }
  param {
    lr_mult: 2
    decay_mult: 0
  }
  convolution_param {
    num_output: 96
    kernel_size: 11
    stride: 4
    weight_filler {
      type: "gaussian"
      std: 0.01
    }
    bias_filler {
      type: "constant"
      value: 0
    }
  }
}
layer {
  name: "relu1"
  type: "ReLU"
  bottom: "conv1"
  top: "conv1"
}
layer {
  name: "norm1"
  type: "LRN"
  bottom: "conv1"
  top: "norm1"
  lrn_param {
    local_size: 5
    alpha: 0.0001
    beta: 0.75
  }
}
layer {
  name: "pool1"
  type: "Pooling"
  bottom: "norm1"
  top: "pool1"
  pooling_param {
    pool: MAX
    kernel_size: 3
    stride: 2
  }
}
layer {
  name: "conv2"
  type: "Convolution"
  bottom: "pool1"
  top: "conv2"
  param {
    lr_mult: 1
    decay_mult: 1
  }
  param {
    lr_mult: 2
    decay_mult: 0
  }
  convolution_param {
    num_output: 256
    pad: 2
    kernel_size: 5
    group: 2
    weight_filler {
      type: "gaussian"
      std: 0.01
    }
    bias_filler {
      type: "constant"
      value: 0.1
    }
  }
}
layer {
  name: "relu2"
  type: "ReLU"
  bottom: "conv2"
  top: "conv2"
}
layer {
  name: "norm2"
  type: "LRN"
  bottom: "conv2"
  top: "norm2"
  lrn_param {
    local_size: 5
    alpha: 0.0001
    beta: 0.75
  }
}
layer {
  name: "pool2"
  type: "Pooling"
  bottom: "norm2"
  top: "pool2"
  pooling_param {
    pool: MAX
    kernel_size: 3
    stride: 2
  }
}
layer {
  name: "conv3"
  type: "Convolution"
  bottom: "pool2"
  top: "conv3"
  param {
    lr_mult: 1
    decay_mult: 1
  }
  param {
    lr_mult: 2
    decay_mult: 0
  }
  convolution_param {
    num_output: 384
    pad: 1
    kernel_size: 3
    weight_filler {
      type: "gaussian"
      std: 0.01
    }
    bias_filler {
      type: "constant"
      value: 0
    }
  }
}
layer {
  name: "relu3"
  type: "ReLU"
  bottom: "conv3"
  top: "conv3"
}
layer {
  name: "conv4"
  type: "Convolution"
  bottom: "conv3"
  top: "conv4"
  param {
    lr_mult: 1
    decay_mult: 1
  }
  param {
    lr_mult: 2
    decay_mult: 0
  }
  convolution_param {
    num_output: 384
    pad: 1
    kernel_size: 3
    group: 2
    weight_filler {
      type: "gaussian"
      std: 0.01
    }
    bias_filler {
      type: "constant"
      value: 0.1
    }
  }
}
layer {
  name: "relu4"
  type: "ReLU"
  bottom: "conv4"
  top: "conv4"
}
layer {
  name: "conv5"
  type: "Convolution"
  bottom: "conv4"
  top: "conv5"
  param {
    lr_mult: 1
    decay_mult: 1
  }
  param {
    lr_mult: 2
    decay_mult: 0
  }
  convolution_param {
    num_output: 256
    pad: 1
    kernel_size: 3
    group: 2
    weight_filler {
      type: "gaussian"
      std: 0.01
    }
    bias_filler {
      type: "constant"
      value: 0.1
    }
  }
}
layer {
  name: "relu5"
  type: "ReLU"
  bottom: "conv5"
  top: "conv5"
}
layer {
  name: "pool5"
  type: "Pooling"
  bottom: "conv5"
  top: "pool5"
  pooling_param {
    pool: MAX
    kernel_size: 3
    stride: 2
  }
}
layer {
  name: "fc6"
  type: "InnerProduct"
  bottom: "pool5"
  top: "fc6"
  param {
    lr_mult: 1
    decay_mult: 1
  }
  param {
    lr_mult: 2
    decay_mult: 0
  }
  inner_product_param {
    num_output: 4096
    weight_filler {
      type: "gaussian"
      std: 0.005
    }
    bias_filler {
      type: "constant"
      value: 0.1
    }
  }
}
layer {
  name: "relu6"
  type: "ReLU"
  bottom: "fc6"
  top: "fc6"
}
layer {
  name: "drop6"
  type: "Dropout"
  bottom: "fc6"
  top: "fc6"
  dropout_param {
    dropout_ratio: 0.5
  }
}
layer {
  name: "fc7-food"
  type: "InnerProduct"
  bottom: "fc6"
  top: "fc7-food"
  param {
    lr_mult: 100
    decay_mult: 1
  }
  param {
    lr_mult: 100
    decay_mult: 0
  }
  inner_product_param {
    num_output: 4096
    weight_filler {
      type: "gaussian"
      std: 0.005
    }
    bias_filler {
      type: "constant"
      value: 0.1
    }
  }
}
layer {
  name: "relu7"
  type: "ReLU"
  bottom: "fc7-food"
  top: "fc7-food"
}
layer {
  name: "drop7"
  type: "Dropout"
  bottom: "fc7-food"
  top: "fc7-food"
  dropout_param {
    dropout_ratio: 0.5
  }
}
layer {
  name: "fc8-food"
  type: "InnerProduct"
  bottom: "fc7-food"
  top: "fc8-food"
  param {
    lr_mult: 100
    decay_mult: 1
  }
  param {
    lr_mult: 100
    decay_mult: 0
  }
  inner_product_param {
    num_output: 101
    weight_filler {
      type: "gaussian"
      std: 0.01
    }
    bias_filler {
      type: "constant"
      value: 0
    }
  }
}
layer {
  name: "loss"
  type: "SoftmaxWithLoss"
  bottom: "fc8-food"
  bottom: "label"
  top: "loss"
}
I1123 15:32:08.744761  7240 layer_factory.hpp:77] Creating layer data
I1123 15:32:08.745334  7240 net.cpp:91] Creating Layer data
I1123 15:32:08.745393  7240 net.cpp:399] data -> data
I1123 15:32:08.745455  7240 net.cpp:399] data -> label
I1123 15:32:08.745481  7240 data_transformer.cpp:25] Loading mean file from: /mnt/data/mean_all.binaryproto
I1123 15:32:08.746749  7247 db_lmdb.cpp:35] Opened lmdb /mnt/data/train_all_lmdb
I1123 15:32:08.759428  7240 data_layer.cpp:41] output data size: 128,3,227,227
I1123 15:32:08.914263  7240 net.cpp:141] Setting up data
I1123 15:32:08.914368  7240 net.cpp:148] Top shape: 128 3 227 227 (19787136)
I1123 15:32:08.914386  7240 net.cpp:148] Top shape: 128 (128)
I1123 15:32:08.914391  7240 net.cpp:156] Memory required for data: 79149056
I1123 15:32:08.914404  7240 layer_factory.hpp:77] Creating layer conv1
I1123 15:32:08.914448  7240 net.cpp:91] Creating Layer conv1
I1123 15:32:08.914469  7240 net.cpp:425] conv1 <- data
I1123 15:32:08.914499  7240 net.cpp:399] conv1 -> conv1
I1123 15:32:09.109846  7240 net.cpp:141] Setting up conv1
I1123 15:32:09.109889  7240 net.cpp:148] Top shape: 128 96 55 55 (37171200)
I1123 15:32:09.109894  7240 net.cpp:156] Memory required for data: 227833856
I1123 15:32:09.109923  7240 layer_factory.hpp:77] Creating layer relu1
I1123 15:32:09.109947  7240 net.cpp:91] Creating Layer relu1
I1123 15:32:09.109956  7240 net.cpp:425] relu1 <- conv1
I1123 15:32:09.109964  7240 net.cpp:386] relu1 -> conv1 (in-place)
I1123 15:32:09.110160  7240 net.cpp:141] Setting up relu1
I1123 15:32:09.110185  7240 net.cpp:148] Top shape: 128 96 55 55 (37171200)
I1123 15:32:09.110196  7240 net.cpp:156] Memory required for data: 376518656
I1123 15:32:09.110206  7240 layer_factory.hpp:77] Creating layer norm1
I1123 15:32:09.110232  7240 net.cpp:91] Creating Layer norm1
I1123 15:32:09.110244  7240 net.cpp:425] norm1 <- conv1
I1123 15:32:09.110260  7240 net.cpp:399] norm1 -> norm1
I1123 15:32:09.110555  7240 net.cpp:141] Setting up norm1
I1123 15:32:09.110580  7240 net.cpp:148] Top shape: 128 96 55 55 (37171200)
I1123 15:32:09.110591  7240 net.cpp:156] Memory required for data: 525203456
I1123 15:32:09.110601  7240 layer_factory.hpp:77] Creating layer pool1
I1123 15:32:09.110622  7240 net.cpp:91] Creating Layer pool1
I1123 15:32:09.110633  7240 net.cpp:425] pool1 <- norm1
I1123 15:32:09.110673  7240 net.cpp:399] pool1 -> pool1
I1123 15:32:09.110769  7240 net.cpp:141] Setting up pool1
I1123 15:32:09.110792  7240 net.cpp:148] Top shape: 128 96 27 27 (8957952)
I1123 15:32:09.110802  7240 net.cpp:156] Memory required for data: 561035264
I1123 15:32:09.110813  7240 layer_factory.hpp:77] Creating layer conv2
I1123 15:32:09.110837  7240 net.cpp:91] Creating Layer conv2
I1123 15:32:09.110848  7240 net.cpp:425] conv2 <- pool1
I1123 15:32:09.110864  7240 net.cpp:399] conv2 -> conv2
I1123 15:32:09.132700  7240 net.cpp:141] Setting up conv2
I1123 15:32:09.132735  7240 net.cpp:148] Top shape: 128 256 27 27 (23887872)
I1123 15:32:09.132745  7240 net.cpp:156] Memory required for data: 656586752
I1123 15:32:09.132774  7240 layer_factory.hpp:77] Creating layer relu2
I1123 15:32:09.132792  7240 net.cpp:91] Creating Layer relu2
I1123 15:32:09.132804  7240 net.cpp:425] relu2 <- conv2
I1123 15:32:09.132818  7240 net.cpp:386] relu2 -> conv2 (in-place)
I1123 15:32:09.133126  7240 net.cpp:141] Setting up relu2
I1123 15:32:09.133150  7240 net.cpp:148] Top shape: 128 256 27 27 (23887872)
I1123 15:32:09.133162  7240 net.cpp:156] Memory required for data: 752138240
I1123 15:32:09.133172  7240 layer_factory.hpp:77] Creating layer norm2
I1123 15:32:09.133196  7240 net.cpp:91] Creating Layer norm2
I1123 15:32:09.133208  7240 net.cpp:425] norm2 <- conv2
I1123 15:32:09.133227  7240 net.cpp:399] norm2 -> norm2
I1123 15:32:09.133425  7240 net.cpp:141] Setting up norm2
I1123 15:32:09.133450  7240 net.cpp:148] Top shape: 128 256 27 27 (23887872)
I1123 15:32:09.133460  7240 net.cpp:156] Memory required for data: 847689728
I1123 15:32:09.133469  7240 layer_factory.hpp:77] Creating layer pool2
I1123 15:32:09.133492  7240 net.cpp:91] Creating Layer pool2
I1123 15:32:09.133503  7240 net.cpp:425] pool2 <- norm2
I1123 15:32:09.133518  7240 net.cpp:399] pool2 -> pool2
I1123 15:32:09.133589  7240 net.cpp:141] Setting up pool2
I1123 15:32:09.133610  7240 net.cpp:148] Top shape: 128 256 13 13 (5537792)
I1123 15:32:09.133620  7240 net.cpp:156] Memory required for data: 869840896
I1123 15:32:09.133630  7240 layer_factory.hpp:77] Creating layer conv3
I1123 15:32:09.133661  7240 net.cpp:91] Creating Layer conv3
I1123 15:32:09.133679  7240 net.cpp:425] conv3 <- pool2
I1123 15:32:09.133700  7240 net.cpp:399] conv3 -> conv3
I1123 15:32:09.164361  7240 net.cpp:141] Setting up conv3
I1123 15:32:09.164407  7240 net.cpp:148] Top shape: 128 384 13 13 (8306688)
I1123 15:32:09.164417  7240 net.cpp:156] Memory required for data: 903067648
I1123 15:32:09.164449  7240 layer_factory.hpp:77] Creating layer relu3
I1123 15:32:09.164470  7240 net.cpp:91] Creating Layer relu3
I1123 15:32:09.164482  7240 net.cpp:425] relu3 <- conv3
I1123 15:32:09.164497  7240 net.cpp:386] relu3 -> conv3 (in-place)
I1123 15:32:09.164767  7240 net.cpp:141] Setting up relu3
I1123 15:32:09.164793  7240 net.cpp:148] Top shape: 128 384 13 13 (8306688)
I1123 15:32:09.164803  7240 net.cpp:156] Memory required for data: 936294400
I1123 15:32:09.164813  7240 layer_factory.hpp:77] Creating layer conv4
I1123 15:32:09.164844  7240 net.cpp:91] Creating Layer conv4
I1123 15:32:09.164865  7240 net.cpp:425] conv4 <- conv3
I1123 15:32:09.164893  7240 net.cpp:399] conv4 -> conv4
I1123 15:32:09.188745  7240 net.cpp:141] Setting up conv4
I1123 15:32:09.188791  7240 net.cpp:148] Top shape: 128 384 13 13 (8306688)
I1123 15:32:09.188801  7240 net.cpp:156] Memory required for data: 969521152
I1123 15:32:09.188819  7240 layer_factory.hpp:77] Creating layer relu4
I1123 15:32:09.188839  7240 net.cpp:91] Creating Layer relu4
I1123 15:32:09.188850  7240 net.cpp:425] relu4 <- conv4
I1123 15:32:09.188871  7240 net.cpp:386] relu4 -> conv4 (in-place)
I1123 15:32:09.189146  7240 net.cpp:141] Setting up relu4
I1123 15:32:09.189172  7240 net.cpp:148] Top shape: 128 384 13 13 (8306688)
I1123 15:32:09.189182  7240 net.cpp:156] Memory required for data: 1002747904
I1123 15:32:09.189191  7240 layer_factory.hpp:77] Creating layer conv5
I1123 15:32:09.189218  7240 net.cpp:91] Creating Layer conv5
I1123 15:32:09.189258  7240 net.cpp:425] conv5 <- conv4
I1123 15:32:09.189285  7240 net.cpp:399] conv5 -> conv5
I1123 15:32:09.206068  7240 net.cpp:141] Setting up conv5
I1123 15:32:09.206116  7240 net.cpp:148] Top shape: 128 256 13 13 (5537792)
I1123 15:32:09.206126  7240 net.cpp:156] Memory required for data: 1024899072
I1123 15:32:09.206158  7240 layer_factory.hpp:77] Creating layer relu5
I1123 15:32:09.206178  7240 net.cpp:91] Creating Layer relu5
I1123 15:32:09.206190  7240 net.cpp:425] relu5 <- conv5
I1123 15:32:09.206205  7240 net.cpp:386] relu5 -> conv5 (in-place)
I1123 15:32:09.206393  7240 net.cpp:141] Setting up relu5
I1123 15:32:09.206421  7240 net.cpp:148] Top shape: 128 256 13 13 (5537792)
I1123 15:32:09.206431  7240 net.cpp:156] Memory required for data: 1047050240
I1123 15:32:09.206441  7240 layer_factory.hpp:77] Creating layer pool5
I1123 15:32:09.206457  7240 net.cpp:91] Creating Layer pool5
I1123 15:32:09.206468  7240 net.cpp:425] pool5 <- conv5
I1123 15:32:09.206482  7240 net.cpp:399] pool5 -> pool5
I1123 15:32:09.206557  7240 net.cpp:141] Setting up pool5
I1123 15:32:09.206581  7240 net.cpp:148] Top shape: 128 256 6 6 (1179648)
I1123 15:32:09.206590  7240 net.cpp:156] Memory required for data: 1051768832
I1123 15:32:09.206600  7240 layer_factory.hpp:77] Creating layer fc6
I1123 15:32:09.206629  7240 net.cpp:91] Creating Layer fc6
I1123 15:32:09.206640  7240 net.cpp:425] fc6 <- pool5
I1123 15:32:09.206660  7240 net.cpp:399] fc6 -> fc6
I1123 15:32:10.521061  7240 net.cpp:141] Setting up fc6
I1123 15:32:10.521121  7240 net.cpp:148] Top shape: 128 4096 (524288)
I1123 15:32:10.521132  7240 net.cpp:156] Memory required for data: 1053865984
I1123 15:32:10.521153  7240 layer_factory.hpp:77] Creating layer relu6
I1123 15:32:10.521174  7240 net.cpp:91] Creating Layer relu6
I1123 15:32:10.521186  7240 net.cpp:425] relu6 <- fc6
I1123 15:32:10.521200  7240 net.cpp:386] relu6 -> fc6 (in-place)
I1123 15:32:10.521621  7240 net.cpp:141] Setting up relu6
I1123 15:32:10.521646  7240 net.cpp:148] Top shape: 128 4096 (524288)
I1123 15:32:10.521656  7240 net.cpp:156] Memory required for data: 1055963136
I1123 15:32:10.521672  7240 layer_factory.hpp:77] Creating layer drop6
I1123 15:32:10.521699  7240 net.cpp:91] Creating Layer drop6
I1123 15:32:10.521710  7240 net.cpp:425] drop6 <- fc6
I1123 15:32:10.521729  7240 net.cpp:386] drop6 -> fc6 (in-place)
I1123 15:32:10.521792  7240 net.cpp:141] Setting up drop6
I1123 15:32:10.521816  7240 net.cpp:148] Top shape: 128 4096 (524288)
I1123 15:32:10.521826  7240 net.cpp:156] Memory required for data: 1058060288
I1123 15:32:10.521836  7240 layer_factory.hpp:77] Creating layer fc7-food
I1123 15:32:10.521857  7240 net.cpp:91] Creating Layer fc7-food
I1123 15:32:10.521868  7240 net.cpp:425] fc7-food <- fc6
I1123 15:32:10.521883  7240 net.cpp:399] fc7-food -> fc7-food
I1123 15:32:11.107784  7240 net.cpp:141] Setting up fc7-food
I1123 15:32:11.107833  7240 net.cpp:148] Top shape: 128 4096 (524288)
I1123 15:32:11.107844  7240 net.cpp:156] Memory required for data: 1060157440
I1123 15:32:11.107864  7240 layer_factory.hpp:77] Creating layer relu7
I1123 15:32:11.107890  7240 net.cpp:91] Creating Layer relu7
I1123 15:32:11.107903  7240 net.cpp:425] relu7 <- fc7-food
I1123 15:32:11.107921  7240 net.cpp:386] relu7 -> fc7-food (in-place)
I1123 15:32:11.108151  7240 net.cpp:141] Setting up relu7
I1123 15:32:11.108175  7240 net.cpp:148] Top shape: 128 4096 (524288)
I1123 15:32:11.108186  7240 net.cpp:156] Memory required for data: 1062254592
I1123 15:32:11.108196  7240 layer_factory.hpp:77] Creating layer drop7
I1123 15:32:11.108217  7240 net.cpp:91] Creating Layer drop7
I1123 15:32:11.108228  7240 net.cpp:425] drop7 <- fc7-food
I1123 15:32:11.108242  7240 net.cpp:386] drop7 -> fc7-food (in-place)
I1123 15:32:11.108289  7240 net.cpp:141] Setting up drop7
I1123 15:32:11.108319  7240 net.cpp:148] Top shape: 128 4096 (524288)
I1123 15:32:11.108330  7240 net.cpp:156] Memory required for data: 1064351744
I1123 15:32:11.108338  7240 layer_factory.hpp:77] Creating layer fc8-food
I1123 15:32:11.108392  7240 net.cpp:91] Creating Layer fc8-food
I1123 15:32:11.108403  7240 net.cpp:425] fc8-food <- fc7-food
I1123 15:32:11.108424  7240 net.cpp:399] fc8-food -> fc8-food
I1123 15:32:11.123100  7240 net.cpp:141] Setting up fc8-food
I1123 15:32:11.123124  7240 net.cpp:148] Top shape: 128 101 (12928)
I1123 15:32:11.123134  7240 net.cpp:156] Memory required for data: 1064403456
I1123 15:32:11.123152  7240 layer_factory.hpp:77] Creating layer loss
I1123 15:32:11.123174  7240 net.cpp:91] Creating Layer loss
I1123 15:32:11.123189  7240 net.cpp:425] loss <- fc8-food
I1123 15:32:11.123201  7240 net.cpp:425] loss <- label
I1123 15:32:11.123219  7240 net.cpp:399] loss -> loss
I1123 15:32:11.123257  7240 layer_factory.hpp:77] Creating layer loss
…
I1123 15:32:11.125406  7240 solver.cpp:181] Creating test net (#0) specified by net file: /home/ubuntu/caffe/models/bvlc_alexnet/train_val_new.prototxt
I1123 15:32:11.125494  7240 net.cpp:313] The NetState phase (1) differed from the phase (0) specified by a rule in layer data
I1123 15:32:11.125759  7240 net.cpp:49] Initializing net from parameters: 
name: "AlexNet"
state {
  phase: TEST
}
layer {
  name: "data"
  type: "Data"
  top: "data"
  top: "label"
  include {
    phase: TEST
  }
  transform_param {
    mirror: false
    crop_size: 227
    mean_file: "/mnt/data/mean_all.binaryproto"
  }
  data_param {
    source: "/mnt/data/test_all_lmdb"
    batch_size: 50
    backend: LMDB
  }
}
layer {
  name: "conv1"
  type: "Convolution"
  bottom: "data"
  top: "conv1"
  param {
    lr_mult: 1
    decay_mult: 1
  }
  param {
    lr_mult: 2
    decay_mult: 0
  }
  convolution_param {
    num_output: 96
    kernel_size: 11
    stride: 4
    weight_filler {
      type: "gaussian"
      std: 0.01
    }
    bias_filler {
      type: "constant"
      value: 0
    }
  }
}
layer {
  name: "relu1"
  type: "ReLU"
  bottom: "conv1"
  top: "conv1"
}
layer {
  name: "norm1"
  type: "LRN"
  bottom: "conv1"
  top: "norm1"
  lrn_param {
    local_size: 5
    alpha: 0.0001
    beta: 0.75
  }
}
layer {
  name: "pool1"
  type: "Pooling"
  bottom: "norm1"
  top: "pool1"
  pooling_param {
    pool: MAX
    kernel_size: 3
    stride: 2
  }
}
layer {
  name: "conv2"
  type: "Convolution"
  bottom: "pool1"
  top: "conv2"
  param {
    lr_mult: 1
    decay_mult: 1
  }
  param {
    lr_mult: 2
    decay_mult: 0
  }
  convolution_param {
    num_output: 256
    pad: 2
    kernel_size: 5
    group: 2
    weight_filler {
      type: "gaussian"
      std: 0.01
    }
    bias_filler {
      type: "constant"
      value: 0.1
    }
  }
}
layer {
  name: "relu2"
  type: "ReLU"
  bottom: "conv2"
  top: "conv2"
}
layer {
  name: "norm2"
  type: "LRN"
  bottom: "conv2"
  top: "norm2"
  lrn_param {
    local_size: 5
    alpha: 0.0001
    beta: 0.75
  }
}
layer {
  name: "pool2"
  type: "Pooling"
  bottom: "norm2"
  top: "pool2"
  pooling_param {
    pool: MAX
    kernel_size: 3
    stride: 2
  }
}
layer {
  name: "conv3"
  type: "Convolution"
  bottom: "pool2"
  top: "conv3"
  param {
    lr_mult: 1
    decay_mult: 1
  }
  param {
    lr_mult: 2
    decay_mult: 0
  }
  convolution_param {
    num_output: 384
    pad: 1
    kernel_size: 3
    weight_filler {
      type: "gaussian"
      std: 0.01
    }
    bias_filler {
      type: "constant"
      value: 0
    }
  }
}
layer {
  name: "relu3"
  type: "ReLU"
  bottom: "conv3"
  top: "conv3"
}
layer {
  name: "conv4"
  type: "Convolution"
  bottom: "conv3"
  top: "conv4"
  param {
    lr_mult: 1
    decay_mult: 1
  }
  param {
    lr_mult: 2
    decay_mult: 0
  }
  convolution_param {
    num_output: 384
    pad: 1
    kernel_size: 3
    group: 2
    weight_filler {
      type: "gaussian"
      std: 0.01
    }
    bias_filler {
      type: "constant"
      value: 0.1
    }
  }
}
layer {
  name: "relu4"
  type: "ReLU"
  bottom: "conv4"
  top: "conv4"
}
layer {
  name: "conv5"
  type: "Convolution"
  bottom: "conv4"
  top: "conv5"
  param {
    lr_mult: 1
    decay_mult: 1
  }
  param {
    lr_mult: 2
    decay_mult: 0
  }
  convolution_param {
    num_output: 256
    pad: 1
    kernel_size: 3
    group: 2
    weight_filler {
      type: "gaussian"
      std: 0.01
    }
    bias_filler {
      type: "constant"
      value: 0.1
    }
  }
}
layer {
  name: "relu5"
  type: "ReLU"
  bottom: "conv5"
  top: "conv5"
}
layer {
  name: "pool5"
  type: "Pooling"
  bottom: "conv5"
  top: "pool5"
  pooling_param {
    pool: MAX
    kernel_size: 3
    stride: 2
  }
}
layer {
  name: "fc6"
  type: "InnerProduct"
  bottom: "pool5"
  top: "fc6"
  param {
    lr_mult: 1
    decay_mult: 1
  }
  param {
    lr_mult: 2
    decay_mult: 0
  }
  inner_product_param {
    num_output: 4096
    weight_filler {
      type: "gaussian"
      std: 0.005
    }
    bias_filler {
      type: "constant"
      value: 0.1
    }
  }
}
layer {
  name: "relu6"
  type: "ReLU"
  bottom: "fc6"
  top: "fc6"
}
layer {
  name: "drop6"
  type: "Dropout"
  bottom: "fc6"
  top: "fc6"
  dropout_param {
    dropout_ratio: 0.5
  }
}
layer {
  name: "fc7-food"
  type: "InnerProduct"
  bottom: "fc6"
  top: "fc7-food"
  param {
    lr_mult: 100
    decay_mult: 1
  }
  param {
    lr_mult: 100
    decay_mult: 0
  }
  inner_product_param {
    num_output: 4096
    weight_filler {
      type: "gaussian"
      std: 0.005
    }
    bias_filler {
      type: "constant"
      value: 0.1
    }
  }
}
layer {
  name: "relu7"
  type: "ReLU"
  bottom: "fc7-food"
  top: "fc7-food"
}
layer {
  name: "drop7"
  type: "Dropout"
  bottom: "fc7-food"
  top: "fc7-food"
  dropout_param {
    dropout_ratio: 0.5
  }
}
layer {
  name: "fc8-food"
  type: "InnerProduct"
  bottom: "fc7-food"
  top: "fc8-food"
  param {
    lr_mult: 100
    decay_mult: 1
  }
  param {
    lr_mult: 100
    decay_mult: 0
  }
  inner_product_param {
    num_output: 101
    weight_filler {
      type: "gaussian"
      std: 0.01
    }
    bias_filler {
      type: "constant"
      value: 0
    }
  }
}
layer {
  name: "accuracy"
  type: "Accuracy"
  bottom: "fc8-food"
  bottom: "label"
  top: "accuracy"
  include {
    phase: TEST
  }
}
layer {
  name: "loss"
  type: "SoftmaxWithLoss"
  bottom: "fc8-food"
  bottom: "label"
  top: "loss"
}
I1123 15:32:11.126020  7240 layer_factory.hpp:77] Creating layer data
I1123 15:32:11.126591  7240 net.cpp:91] Creating Layer data
I1123 15:32:11.126615  7240 net.cpp:399] data -> data
I1123 15:32:11.126636  7240 net.cpp:399] data -> label
I1123 15:32:11.126654  7240 data_transformer.cpp:25] Loading mean file from: /mnt/data/mean_all.binaryproto
I1123 15:32:11.127681  7249 db_lmdb.cpp:35] Opened lmdb /mnt/data/test_all_lmdb
I1123 15:32:11.129626  7240 data_layer.cpp:41] output data size: 50,3,227,227
I1123 15:32:11.186543  7240 net.cpp:141] Setting up data
I1123 15:32:11.186589  7240 net.cpp:148] Top shape: 50 3 227 227 (7729350)
I1123 15:32:11.186609  7240 net.cpp:148] Top shape: 50 (50)
I1123 15:32:11.186617  7240 net.cpp:156] Memory required for data: 30917600
I1123 15:32:11.186631  7240 layer_factory.hpp:77] Creating layer label_data_1_split
I1123 15:32:11.186661  7240 net.cpp:91] Creating Layer label_data_1_split
I1123 15:32:11.186673  7240 net.cpp:425] label_data_1_split <- label
I1123 15:32:11.186689  7240 net.cpp:399] label_data_1_split -> label_data_1_split_0
I1123 15:32:11.186712  7240 net.cpp:399] label_data_1_split -> label_data_1_split_1
I1123 15:32:11.186807  7240 net.cpp:141] Setting up label_data_1_split
I1123 15:32:11.186830  7240 net.cpp:148] Top shape: 50 (50)
I1123 15:32:11.186843  7240 net.cpp:148] Top shape: 50 (50)
I1123 15:32:11.186852  7240 net.cpp:156] Memory required for data: 30918000
I1123 15:32:11.186862  7240 layer_factory.hpp:77] Creating layer conv1
I1123 15:32:11.186895  7240 net.cpp:91] Creating Layer conv1
I1123 15:32:11.186914  7240 net.cpp:425] conv1 <- data
I1123 15:32:11.186934  7240 net.cpp:399] conv1 -> conv1
I1123 15:32:11.191932  7240 net.cpp:141] Setting up conv1
I1123 15:32:11.191962  7240 net.cpp:148] Top shape: 50 96 55 55 (14520000)
I1123 15:32:11.191973  7240 net.cpp:156] Memory required for data: 88998000
I1123 15:32:11.191998  7240 layer_factory.hpp:77] Creating layer relu1
I1123 15:32:11.192015  7240 net.cpp:91] Creating Layer relu1
I1123 15:32:11.192026  7240 net.cpp:425] relu1 <- conv1
I1123 15:32:11.192040  7240 net.cpp:386] relu1 -> conv1 (in-place)
I1123 15:32:11.192219  7240 net.cpp:141] Setting up relu1
I1123 15:32:11.192245  7240 net.cpp:148] Top shape: 50 96 55 55 (14520000)
I1123 15:32:11.192253  7240 net.cpp:156] Memory required for data: 147078000
I1123 15:32:11.192263  7240 layer_factory.hpp:77] Creating layer norm1
I1123 15:32:11.192284  7240 net.cpp:91] Creating Layer norm1
I1123 15:32:11.192294  7240 net.cpp:425] norm1 <- conv1
I1123 15:32:11.192309  7240 net.cpp:399] norm1 -> norm1
I1123 15:32:11.192612  7240 net.cpp:141] Setting up norm1
I1123 15:32:11.192638  7240 net.cpp:148] Top shape: 50 96 55 55 (14520000)
I1123 15:32:11.192648  7240 net.cpp:156] Memory required for data: 205158000
I1123 15:32:11.192658  7240 layer_factory.hpp:77] Creating layer pool1
I1123 15:32:11.192675  7240 net.cpp:91] Creating Layer pool1
I1123 15:32:11.192687  7240 net.cpp:425] pool1 <- norm1
I1123 15:32:11.192704  7240 net.cpp:399] pool1 -> pool1
I1123 15:32:11.192780  7240 net.cpp:141] Setting up pool1
I1123 15:32:11.192801  7240 net.cpp:148] Top shape: 50 96 27 27 (3499200)
I1123 15:32:11.192811  7240 net.cpp:156] Memory required for data: 219154800
I1123 15:32:11.192821  7240 layer_factory.hpp:77] Creating layer conv2
I1123 15:32:11.192842  7240 net.cpp:91] Creating Layer conv2
I1123 15:32:11.192852  7240 net.cpp:425] conv2 <- pool1
I1123 15:32:11.192869  7240 net.cpp:399] conv2 -> conv2
I1123 15:32:11.204768  7240 net.cpp:141] Setting up conv2
I1123 15:32:11.204813  7240 net.cpp:148] Top shape: 50 256 27 27 (9331200)
I1123 15:32:11.204823  7240 net.cpp:156] Memory required for data: 256479600
I1123 15:32:11.204850  7240 layer_factory.hpp:77] Creating layer relu2
I1123 15:32:11.204870  7240 net.cpp:91] Creating Layer relu2
I1123 15:32:11.204882  7240 net.cpp:425] relu2 <- conv2
I1123 15:32:11.204923  7240 net.cpp:386] relu2 -> conv2 (in-place)
I1123 15:32:11.205199  7240 net.cpp:141] Setting up relu2
I1123 15:32:11.205224  7240 net.cpp:148] Top shape: 50 256 27 27 (9331200)
I1123 15:32:11.205234  7240 net.cpp:156] Memory required for data: 293804400
I1123 15:32:11.205243  7240 layer_factory.hpp:77] Creating layer norm2
I1123 15:32:11.205265  7240 net.cpp:91] Creating Layer norm2
I1123 15:32:11.205276  7240 net.cpp:425] norm2 <- conv2
I1123 15:32:11.205291  7240 net.cpp:399] norm2 -> norm2
I1123 15:32:11.205499  7240 net.cpp:141] Setting up norm2
I1123 15:32:11.205525  7240 net.cpp:148] Top shape: 50 256 27 27 (9331200)
I1123 15:32:11.205535  7240 net.cpp:156] Memory required for data: 331129200
I1123 15:32:11.205544  7240 layer_factory.hpp:77] Creating layer pool2
I1123 15:32:11.205561  7240 net.cpp:91] Creating Layer pool2
I1123 15:32:11.205572  7240 net.cpp:425] pool2 <- norm2
I1123 15:32:11.205586  7240 net.cpp:399] pool2 -> pool2
I1123 15:32:11.205662  7240 net.cpp:141] Setting up pool2
I1123 15:32:11.205689  7240 net.cpp:148] Top shape: 50 256 13 13 (2163200)
I1123 15:32:11.205699  7240 net.cpp:156] Memory required for data: 339782000
I1123 15:32:11.205709  7240 layer_factory.hpp:77] Creating layer conv3
I1123 15:32:11.205734  7240 net.cpp:91] Creating Layer conv3
I1123 15:32:11.205744  7240 net.cpp:425] conv3 <- pool2
I1123 15:32:11.205761  7240 net.cpp:399] conv3 -> conv3
I1123 15:32:11.236621  7240 net.cpp:141] Setting up conv3
I1123 15:32:11.236667  7240 net.cpp:148] Top shape: 50 384 13 13 (3244800)
I1123 15:32:11.236677  7240 net.cpp:156] Memory required for data: 352761200
I1123 15:32:11.236704  7240 layer_factory.hpp:77] Creating layer relu3
I1123 15:32:11.236724  7240 net.cpp:91] Creating Layer relu3
I1123 15:32:11.236735  7240 net.cpp:425] relu3 <- conv3
I1123 15:32:11.236752  7240 net.cpp:386] relu3 -> conv3 (in-place)
I1123 15:32:11.237032  7240 net.cpp:141] Setting up relu3
I1123 15:32:11.237057  7240 net.cpp:148] Top shape: 50 384 13 13 (3244800)
I1123 15:32:11.237067  7240 net.cpp:156] Memory required for data: 365740400
I1123 15:32:11.237077  7240 layer_factory.hpp:77] Creating layer conv4
I1123 15:32:11.237102  7240 net.cpp:91] Creating Layer conv4
I1123 15:32:11.237113  7240 net.cpp:425] conv4 <- conv3
I1123 15:32:11.237131  7240 net.cpp:399] conv4 -> conv4
I1123 15:32:11.261057  7240 net.cpp:141] Setting up conv4
I1123 15:32:11.261102  7240 net.cpp:148] Top shape: 50 384 13 13 (3244800)
I1123 15:32:11.261113  7240 net.cpp:156] Memory required for data: 378719600
I1123 15:32:11.261132  7240 layer_factory.hpp:77] Creating layer relu4
I1123 15:32:11.261152  7240 net.cpp:91] Creating Layer relu4
I1123 15:32:11.261164  7240 net.cpp:425] relu4 <- conv4
I1123 15:32:11.261181  7240 net.cpp:386] relu4 -> conv4 (in-place)
I1123 15:32:11.261468  7240 net.cpp:141] Setting up relu4
I1123 15:32:11.261494  7240 net.cpp:148] Top shape: 50 384 13 13 (3244800)
I1123 15:32:11.261504  7240 net.cpp:156] Memory required for data: 391698800
I1123 15:32:11.261515  7240 layer_factory.hpp:77] Creating layer conv5
I1123 15:32:11.261538  7240 net.cpp:91] Creating Layer conv5
I1123 15:32:11.261550  7240 net.cpp:425] conv5 <- conv4
I1123 15:32:11.261569  7240 net.cpp:399] conv5 -> conv5
I1123 15:32:11.278079  7240 net.cpp:141] Setting up conv5
I1123 15:32:11.278126  7240 net.cpp:148] Top shape: 50 256 13 13 (2163200)
I1123 15:32:11.278136  7240 net.cpp:156] Memory required for data: 400351600
I1123 15:32:11.278162  7240 layer_factory.hpp:77] Creating layer relu5
I1123 15:32:11.278182  7240 net.cpp:91] Creating Layer relu5
I1123 15:32:11.278194  7240 net.cpp:425] relu5 <- conv5
I1123 15:32:11.278210  7240 net.cpp:386] relu5 -> conv5 (in-place)
I1123 15:32:11.278493  7240 net.cpp:141] Setting up relu5
I1123 15:32:11.278518  7240 net.cpp:148] Top shape: 50 256 13 13 (2163200)
I1123 15:32:11.278528  7240 net.cpp:156] Memory required for data: 409004400
I1123 15:32:11.278538  7240 layer_factory.hpp:77] Creating layer pool5
I1123 15:32:11.278560  7240 net.cpp:91] Creating Layer pool5
I1123 15:32:11.278604  7240 net.cpp:425] pool5 <- conv5
I1123 15:32:11.278622  7240 net.cpp:399] pool5 -> pool5
I1123 15:32:11.278707  7240 net.cpp:141] Setting up pool5
I1123 15:32:11.278730  7240 net.cpp:148] Top shape: 50 256 6 6 (460800)
I1123 15:32:11.278739  7240 net.cpp:156] Memory required for data: 410847600
I1123 15:32:11.278749  7240 layer_factory.hpp:77] Creating layer fc6
I1123 15:32:11.278769  7240 net.cpp:91] Creating Layer fc6
I1123 15:32:11.278779  7240 net.cpp:425] fc6 <- pool5
I1123 15:32:11.278820  7240 net.cpp:399] fc6 -> fc6
I1123 15:32:12.543337  7240 net.cpp:141] Setting up fc6
I1123 15:32:12.543391  7240 net.cpp:148] Top shape: 50 4096 (204800)
I1123 15:32:12.543402  7240 net.cpp:156] Memory required for data: 411666800
I1123 15:32:12.543423  7240 layer_factory.hpp:77] Creating layer relu6
I1123 15:32:12.543444  7240 net.cpp:91] Creating Layer relu6
I1123 15:32:12.543457  7240 net.cpp:425] relu6 <- fc6
I1123 15:32:12.543472  7240 net.cpp:386] relu6 -> fc6 (in-place)
I1123 15:32:12.543732  7240 net.cpp:141] Setting up relu6
I1123 15:32:12.543757  7240 net.cpp:148] Top shape: 50 4096 (204800)
I1123 15:32:12.543767  7240 net.cpp:156] Memory required for data: 412486000
I1123 15:32:12.543777  7240 layer_factory.hpp:77] Creating layer drop6
I1123 15:32:12.543794  7240 net.cpp:91] Creating Layer drop6
I1123 15:32:12.543805  7240 net.cpp:425] drop6 <- fc6
I1123 15:32:12.543819  7240 net.cpp:386] drop6 -> fc6 (in-place)
I1123 15:32:12.543882  7240 net.cpp:141] Setting up drop6
I1123 15:32:12.543905  7240 net.cpp:148] Top shape: 50 4096 (204800)
I1123 15:32:12.543918  7240 net.cpp:156] Memory required for data: 413305200
I1123 15:32:12.543929  7240 layer_factory.hpp:77] Creating layer fc7-food
I1123 15:32:12.543958  7240 net.cpp:91] Creating Layer fc7-food
I1123 15:32:12.543968  7240 net.cpp:425] fc7-food <- fc6
I1123 15:32:12.543985  7240 net.cpp:399] fc7-food -> fc7-food
I1123 15:32:13.107259  7240 net.cpp:141] Setting up fc7-food
I1123 15:32:13.107311  7240 net.cpp:148] Top shape: 50 4096 (204800)
I1123 15:32:13.107321  7240 net.cpp:156] Memory required for data: 414124400
I1123 15:32:13.107343  7240 layer_factory.hpp:77] Creating layer relu7
I1123 15:32:13.107365  7240 net.cpp:91] Creating Layer relu7
I1123 15:32:13.107378  7240 net.cpp:425] relu7 <- fc7-food
I1123 15:32:13.107395  7240 net.cpp:386] relu7 -> fc7-food (in-place)
I1123 15:32:13.107827  7240 net.cpp:141] Setting up relu7
I1123 15:32:13.107841  7240 net.cpp:148] Top shape: 50 4096 (204800)
I1123 15:32:13.107846  7240 net.cpp:156] Memory required for data: 414943600
I1123 15:32:13.107851  7240 layer_factory.hpp:77] Creating layer drop7
I1123 15:32:13.107861  7240 net.cpp:91] Creating Layer drop7
I1123 15:32:13.107866  7240 net.cpp:425] drop7 <- fc7-food
I1123 15:32:13.107873  7240 net.cpp:386] drop7 -> fc7-food (in-place)
I1123 15:32:13.107919  7240 net.cpp:141] Setting up drop7
I1123 15:32:13.107929  7240 net.cpp:148] Top shape: 50 4096 (204800)
I1123 15:32:13.107933  7240 net.cpp:156] Memory required for data: 415762800
I1123 15:32:13.107938  7240 layer_factory.hpp:77] Creating layer fc8-food
I1123 15:32:13.107957  7240 net.cpp:91] Creating Layer fc8-food
I1123 15:32:13.107962  7240 net.cpp:425] fc8-food <- fc7-food
I1123 15:32:13.107970  7240 net.cpp:399] fc8-food -> fc8-food
I1123 15:32:13.122133  7240 net.cpp:141] Setting up fc8-food
I1123 15:32:13.122159  7240 net.cpp:148] Top shape: 50 101 (5050)
I1123 15:32:13.122169  7240 net.cpp:156] Memory required for data: 415783000
I1123 15:32:13.122186  7240 layer_factory.hpp:77] Creating layer fc8-food_fc8-food_0_split
I1123 15:32:13.122202  7240 net.cpp:91] Creating Layer fc8-food_fc8-food_0_split
I1123 15:32:13.122213  7240 net.cpp:425] fc8-food_fc8-food_0_split <- fc8-food
I1123 15:32:13.122228  7240 net.cpp:399] fc8-food_fc8-food_0_split -> fc8-food_fc8-food_0_split_0
I1123 15:32:13.122246  7240 net.cpp:399] fc8-food_fc8-food_0_split -> fc8-food_fc8-food_0_split_1
I1123 15:32:13.122318  7240 net.cpp:141] Setting up fc8-food_fc8-food_0_split
I1123 15:32:13.122339  7240 net.cpp:148] Top shape: 50 101 (5050)
I1123 15:32:13.122377  7240 net.cpp:148] Top shape: 50 101 (5050)
I1123 15:32:13.122387  7240 net.cpp:156] Memory required for data: 415823400
I1123 15:32:13.122397  7240 layer_factory.hpp:77] Creating layer accuracy
I1123 15:32:13.122426  7240 net.cpp:91] Creating Layer accuracy
I1123 15:32:13.122443  7240 net.cpp:425] accuracy <- fc8-food_fc8-food_0_split_0
I1123 15:32:13.122457  7240 net.cpp:425] accuracy <- label_data_1_split_0
I1123 15:32:13.122473  7240 net.cpp:399] accuracy -> accuracy
…
